s4_debugging_and_logging/exercise_files/model_checkpoint.pt (torch, 439839 bytes, 6 tensors)

model.0.weight f4 [128, 784]
0	0x3d066dcb	0.03281955
1	0xbcd41905	-0.025890836
2	0xbb95a564	-0.0045668352
3	0xbc911d77	-0.017714245
4	0xbca905fe	-0.02063274
5	0x3cc45416	0.023965877
6	0xb79cd000	-1.8693507e-05
7	0xbca2eb6c	-0.019887649
8	0x3cc5764a	0.024104256
9	0xbc0864b2	-0.008324789
10	0x385dec00	5.2910298e-05
11	0x3c9524c8	0.018206015
12	0xbcfe3f75	-0.031036118
13	0x3b852da8	0.0040642805
14	0xbc670f6a	-0.014102796
15	0x3ceac706	0.028659355
16	0x3aa3f1a3	0.0012507926
17	0x3dc0468a	0.09388454
18	0x3cda2508	0.026628986
19	0x3d9b5df0	0.075862765
20	0x3cc329ee	0.023823705
21	0xbc975470	-0.01847288
22	0xbde102ed	-0.10986886
23	0xbc98a2a7	-0.018632246
24	0xbb725e30	-0.003698241
25	0x3ce7ed06	0.028311264
26	0x3b738570	0.0037158392
27	0xbcfb548a	-0.03067996
28	0xbcc38fc5	-0.023872266
29	0x3cd90f40	0.02649653
30	0x3c70b700	0.014692068
31	0xbc14cd86	-0.009082204
32	0xbd18ae20	-0.037275434
33	0xbd02cbb2	-0.03193254
34	0x3d8b3c33	0.067985915
35	0x3c94baaf	0.018155424
36	0xbce60f96	-0.028083604
37	0x3bba5027	0.0056858244
38	0x3d04f0ba	0.032456137
39	0x3c62785a	0.013822639
40	0x3d688bcf	0.056773957
41	0x3d608b33	0.05482025
42	0xbe5ccc47	-0.215623
43	0xbd9fc964	-0.07802084
44	0x3e51c54f	0.20485424
45	0xbc0c8dd1	-0.008578734
46	0xbd27f81b	-0.041008096
47	0x3e2f3891	0.17111422
48	0x3ecc9c28	0.39962888
49	0x3e84247a	0.2580908
50	0x3e10de53	0.1414731
51	0x3d8a8f1c	0.06765577
52	0x3d14977d	0.036277283
53	0x3c6a4c10	0.014300361
54	0xbcb049bc	-0.021519534
55	0xbd057eeb	-0.03259174
56	0xbc9ec6dc	-0.019381933
57	0x3c3a8bb8	0.011385851
58	0x3c8c248c	0.01710727
59	0xbbcd7564	-0.0062700976
60	0x3e2ec562	0.17067483
61	0x3d2b79f7	0.04186436
62	0x3ccbc5d7	0.02487461
63	0xbd5d9377	-0.05409571
64	0xbc67dc39	-0.014151626
65	0xbec43bd4	-0.38326895
66	0xbedcf759	-0.4315746
67	0xbe1df581	-0.15425684
68	0xbe02a37b	-0.12757675
69	0xbe629413	-0.22126798
70	0xbdf88f7a	-0.12136741
71	0xbe8577f9	-0.26068094
72	0xbd9f475b	-0.07777282
73	0x3d84792b	0.064684235
74	0x3e19274c	0.14956397
75	0xbd94bf25	-0.072630204
76	0x3e540d40	0.2070818
77	0x3e1abf57	0.15112053
78	0x3ee29a3d	0.442583
79	0x3e135edf	0.14391659
80	0x3d8f9d4e	0.07012425
81	0x3baa08bb	0.005189029
82	0x3ce38dbe	0.027777549
83	0x3cdf4966	0.027256679
84	0xbd02f516	-0.031972013
85	0x3c8abf4c	0.01693692
86	0x3cdecad2	0.027196322
87	0xbc187a9c	-0.009306576
88	0x3ae56fcd	0.0017504633
89	0x3d06627e	0.032808773
90	0xbd2315ef	-0.03981584
91	0xbba2b950	-0.0049659386
92	0x3e8920c3	0.26782808
93	0xbd5670f6	-0.05235382
94	0xbed718d1	-0.4201112
95	0xbeca2565	-0.39481655
96	0xbe3c4141	-0.18384267
97	0xbe9409cb	-0.2891372
98	0xbdce7bd8	-0.10082215
99	0xbd073a12	-0.033014365
100	0xbdfa8164	-0.122317106
101	0x3d0709fe	0.032968514
102	0x3e5cf8c3	0.2157927
103	0x3e71033f	0.23536395
104	0x3e97888b	0.29596362
105	0x3e5f0948	0.21780884
106	0xbcafa2c6	-0.021439921
107	0x3c5095b7	0.012731007
108	0x3dc62fa8	0.096770585
109	0xbcfc1fb0	-0.030776829
110	0x3d539e80	0.05166483
111	0x3ce660c6	0.028122317
112	0xbab2c6c0	-0.0013639554
113	0xba40e980	-0.0007359013
114	0x3d9cc246	0.07654242
115	0x3df28798	0.11842269
116	0x3c076c11	0.008265511
117	0xbde7b3bd	-0.11313579
118	0xbdf61076	-0.120148584
119	0xbeaee4ad	-0.3415884
120	0xbdffc9d8	-0.124896705
121	0xbebb15aa	-0.36539966
122	0xbef30a4c	-0.47468793
123	0xbd854f94	-0.06509319
124	0x3df4d6a0	0.11954999
125	0xbe14ccef	-0.14531301
126	0xbe792c31	-0.24333264
127	0xbe32ff89	-0.17480291
128	0xbd81b535	-0.063333906
129	0x3c9a8350	0.018861443
130	0xbd1ae659	-0.037817333
131	0x3d06ca65	0.032907862
132	0x3e01dcae	0.12681839
133	0x3e6e54a1	0.23274471
134	0x3e103c68	0.14085543
135	0x3ee303f8	0.44338965
136	0x3e68c848	0.22732651
137	0x3df3b6bf	0.119000904
138	0x3e04df83	0.12975888
139	0xb9af4e80	-0.00033437088
140	0x3b567020	0.003272064
141	0x3b6fee50	0.0036610551
142	0xbc9b971a	-0.01899295
143	0x3dc4a6cb	0.09602126
144	0xbd93725d	-0.071995474
145	0xbce2fa1b	-0.02770715
146	0xbe6e0178	-0.23242748
147	0xbda46604	-0.080272704
148	0xbcf8460b	-0.030306837
149	0xbe5fa21f	-0.21839188
150	0xbd3857b8	-0.04500553
151	0xbd1eb647	-0.038748052
152	0x3dc46692	0.09589876
153	0xbcd8e88e	-0.026478078
154	0xbe1c1387	-0.15241824
155	0xbe71b4f2	-0.23604181
156	0xbd589c84	-0.05288364
157	0xbd83178d	-0.06400976
158	0xbd2928ae	-0.04129856
159	0xbd527716	-0.0513831
160	0x3d0abd63	0.03387202
161	0x3e193bb1	0.14964177
162	0x3d83e708	0.0644055
163	0xbe007bfa	-0.12547293
164	0xbd29b94d	-0.041436482
165	0xbd0ecdba	-0.034864165
166	0x3e52e3a0	0.20594645
167	0xbc94017a	-0.01806711
168	0xbc1f4886	-0.009721881
169	0xbeb8897e	-0.36042398
170	0x3eb39ad6	0.35079068
171	0x3d94ae3f	0.07259797
172	0xbeb5ef68	-0.35534215
173	0xbeae4203	-0.34034738
174	0xbe9d31fe	-0.30702204
175	0x3d2b3a97	0.041803923
176	0x3e1fabf5	0.1559294
177	0xbc22e9ec	-0.009943467
178	0xbc9c59c3	-0.01908577
179	0x3cc71024	0.024299689
180	0x3d71bed3	0.059019875
181	0x3d89925d	0.0671737
182	0x3d585e7b	0.05282448
183	0xbcf36e58	-0.029715702
184	0x3cf0780f	0.029354123
185	0x3d09a679	0.033606026
186	0xbe090d74	-0.13384038
187	0x3b21a21f	0.0024663282
188	0xbd949871	-0.072556384
189	0xbd44c127	-0.048035767
190	0xbd86afa4	-0.065764695
191	0xbcb2ddf1	-0.021834346
192	0x3c84b763	0.016200727
193	0x3e9b8f8e	0.3038296
194	0xbe8dfb9a	-0.2773102
195	0xbdd004e4	-0.10157183
196	0xbc9d7e60	-0.0192253
197	0xbecec74b	-0.40386423
198	0x3ebc6fef	0.3680415
199	0x3da4d4e5	0.08048419
200	0xbdbd18b8	-0.0923323
201	0xbe64c973	-0.22342472
202	0xbe273dd5	-0.16332181
203	0xbba1a2e2	-0.004932747
204	0x3ce5799e	0.028012093
205	0x3b4b8197	0.0031052583
206	0xbe2aabca	-0.16667095
207	0xbcdb8a4c	-0.026799344
208	0x3d0b3c3c	0.03399299
209	0x3e04def4	0.12975675
210	0x3dba9afd	0.09111593
211	0x3ca85ccf	0.020552067
212	0x3e27332f	0.16328119
213	0x3e072ad3	0.1319993
214	0x3e07258d	0.13197918
215	0x3e25c2fa	0.16187659
216	0x3e22ea5c	0.15909714
217	0xbd1210d8	-0.035660595
218	0xbdc40d7e	-0.09572886
219	0xbd888ef4	-0.06667891
220	0x3e06ada1	0.13152172
221	0x3ea9e6c3	0.3318387
222	0x3e8cb85d	0.27484408
223	0x3e46db5e	0.1941962
224	0x3c70855c	0.014680233
225	0xbe318f93	-0.17339925
226	0x3e4195af	0.18904756
227	0x3e5a54f7	0.21321474
228	0xbebd60db	-0.36987957
229	0xbe2deff7	-0.1698607
230	0x3c8fa58d	0.017534995
231	0xbec1642f	-0.37771747
232	0xbdbf2156	-0.0933253
233	0xbe9975f1	-0.29972795
234	0xbdc7d135	-0.097567
235	0x3c2c972e	0.010534091
236	0x3d5d5245	0.054033536
237	0x3e36f528	0.17866957
238	0x3d82da3c	0.06389281
239	0x3da06a50	0.078327775
240	0x3de40bf5	0.11135093
241	0x3e0e7eaa	0.13915506
242	0x3e23789c	0.15963978
243	0x3e0bd146	0.1365405
244	0x3dc08ebb	0.09402224
245	0xbd913e43	-0.070919536
246	0x3da586d5	0.08082358
247	0x3d25ea2f	0.040506538
248	0x3e79b24a	0.24384418
249	0x3da5948e	0.08084975
250	0x3d813ea7	0.06310778
251	0xbe319cae	-0.17344925
252	0xbe2f83e6	-0.17140159
253	0xbd8d640f	-0.0690385
254	0xbe8dc7e3	-0.27691564
255	0xbf2355b5	-0.63802654

model.0.bias f4 [128]
0	0x3e7728ee	0.24136707
1	0x3d29dda9	0.041471157
2	0xbadd711e	-0.0016894673
3	0x3e336226	0.1751791
4	0xbd5432d8	-0.0518063
5	0x3e3fa0ba	0.18713656
6	0x3dddbc99	0.10826988
7	0x3b9de68d	0.0048187436
8	0xbd4a03e1	-0.049320105
9	0x3d82c6e9	0.06385595
10	0xbdbd88ec	-0.092546314
11	0xbe2ff579	-0.17183484
12	0x3d838c3a	0.064232305
13	0x3d8ef09b	0.069794856
14	0x3c98f164	0.018669792
15	0x3dd2996a	0.10283168
16	0xbe01cb7e	-0.12675282
17	0xbda8ed8a	-0.08248432
18	0x3e440dae	0.19145843
19	0x3de36680	0.11103535
20	0xbe1fb3c0	-0.15595913
21	0x3e1ea6c2	0.154933
22	0x3daab3c5	0.083350696
23	0xbd31c8d4	-0.043404415
24	0x3e616dcb	0.22014539
25	0x3dc2d520	0.095133066
26	0xbd21535b	-0.039386135
27	0xbd33cf4e	-0.043898873
28	0xbd6bcb7e	-0.057567112
29	0x3e33df42	0.17565635
30	0x3dad627a	0.084660485
31	0x3cc7265d	0.024310285
32	0x3c46c45c	0.012131777
33	0x3dff76c4	0.124738246
34	0x3c2aaaca	0.010416696
35	0x3c318eb2	0.010837244
36	0xbb9e820d	-0.0048372806
37	0x3e29d2e0	0.16584349
38	0x3e183bb4	0.14866525
39	0xbd2afd9f	-0.04174578
40	0x3d30f86b	0.04320566
41	0x3db0c686	0.08631615
42	0x3d2bbe3a	0.04192946
43	0xba7eed64	-0.0009724705
44	0xbc93190e	-0.017956283
45	0xbd2fd659	-0.042929027
46	0x3be21123	0.0068990155
47	0x3ca17d4c	0.019713067
48	0x3de80d9f	0.11330723
49	0xbccb010f	-0.024780778
50	0x3c88bd70	0.016691893
51	0x3d9a6917	0.075395755
52	0xbd249a9b	-0.040186506
53	0xbe204fc3	-0.15655427
54	0x3d5e2eb3	0.054243755
55	0xbcdf1a95	-0.027234355
56	0x3d3edd81	0.04659796
57	0x3d2c8a01	0.0421238
58	0x3c3ff81b	0.011716868
59	0x3d1a1362	0.03761614
60	0x3c876e7b	0.016532173
61	0xbdafcea4	-0.085843354
62	0x3dec9ec0	0.11553717
63	0x3cfd0549	0.03088631
64	0x3b1429c0	0.0022607893
65	0x3e4a093b	0.19730084
66	0xbd215c93	-0.039394926
67	0xbe0347ac	-0.1282031
68	0x3e1e2ca6	0.1544672
69	0x3d54db0c	0.051966712
70	0x3d9a70f4	0.07541075
71	0x3e110118	0.14160573
72	0x3e3af328	0.18256819
73	0xbe0b51b6	-0.13605389
74	0x3d9f99cc	0.07793006
75	0x3d2ad90f	0.04171091
76	0xbc486595	-0.01223125
77	0x3cb3686f	0.021900384
78	0xbcaadece	-0.020858195
79	0x3e1a2323	0.15052466
80	0x3dba9070	0.091095805
81	0x3d51b596	0.051198564
82	0xbd56ad59	-0.05241141
83	0x3e7688fd	0.24075694
84	0xbe0d159b	-0.13777773
85	0xbd8f0262	-0.06982876
86	0x3dc56ef4	0.09640303
87	0xbe4622b1	-0.19349171
88	0x3d05e55f	0.03268945
89	0x3d290d45	0.04127242
90	0xbc65c272	-0.01402341
91	0x3cc74f04	0.02432967
92	0x3d853523	0.06504276
93	0xbd68a24c	-0.056795403
94	0xbd16abe1	-0.03678501
95	0x3d56938e	0.052386813
96	0xbdb9a054	-0.09063783
97	0x3d6c1fbb	0.057647448
98	0xbdf1caeb	-0.11806282
99	0x3d822536	0.06354754
100	0x3de75f68	0.11297494
101	0xbcbc0315	-0.022950688
102	0x3dc219b6	0.0947756
103	0x3da6f20a	0.08151634
104	0x39771cbf	0.00023566464
105	0xbd7fc467	-0.062443163
106	0x3e05bc79	0.13060178
107	0x3cecf1ea	0.028923947
108	0x3c4b5039	0.012409263
109	0x3bb75d1d	0.0055958168
110	0x3da5aab3	0.08089199
111	0xbd65167d	-0.05592965
112	0x3ddae0a5	0.10687379
113	0x3e44cd9b	0.19219057
114	0x3d0074df	0.031361457
115	0x3e1c172f	0.15243219
116	0xbdb4c206	-0.088260695
117	0x3dbee7de	0.09321569
118	0x3cdfdc46	0.027326714
119	0x3c6bc2d7	0.014389715
120	0x3d39b68b	0.045340102
121	0xbd7c0983	-0.06153251
122	0x3d98b51a	0.074564174
123	0x3d3ce3fe	0.046115868
124	0xbcce496f	-0.0251815
125	0x3e357300	0.1771965
126	0xbdea98e6	-0.11454944
127	0x3dcbf4ee	0.09958826

model.2.weight f4 [64, 128]
0	0x3e836315	0.2566153
1	0xbdce8201	-0.1008339
2	0xbe6bb7e7	-0.23019372
3	0xbc500ba7	-0.012698091
4	0xbe5f6acc	-0.21818084
5	0xba5933fe	-0.00082856405
6	0x3e45da6d	0.19321604
7	0x3e4ea68c	0.2018072
8	0x3ca88d42	0.02057517
9	0x3d20884a	0.039192475
10	0xbe2cd5ac	-0.16878384
11	0xbaffd857	-0.001951943
12	0xbc76cd19	-0.0150635475
13	0x3d85f2cc	0.065404505
14	0xbe383a37	-0.17990957
15	0xbe739fe7	-0.23791467
16	0xbe645482	-0.22297862
17	0x3eb42153	0.35181674
18	0xbe32cad7	-0.1746019
19	0xbdcba069	-0.09942705
20	0xbdd5f285	-0.104466476
21	0x3e906695	0.28203264
22	0x3d6008e4	0.05469598
23	0xbdb3c5d6	-0.087779686
24	0xbde100ee	-0.109865054
25	0x3dd27109	0.10275466
26	0xbec70be9	-0.38876274
27	0xbd35292d	-0.04422872
28	0x3ea0d57b	0.31412873
29	0xbd45785a	-0.04821048
30	0x3e91c4f6	0.28470582
31	0x3d3f176e	0.046653204
32	0xbc54ef47	-0.012996501
33	0x3e82d112	0.25550133
34	0xbd4b06c3	-0.049566995
35	0x3ef26024	0.47338974
36	0x3cc5ae80	0.02413106
37	0x3df86373	0.121283434
38	0x3cbd94c5	0.023142228
39	0x3c91a448	0.01777853
40	0x3e7262db	0.23670523
41	0xbe9567e6	-0.2918083
42	0xbdba958c	-0.09110555
43	0x3ae90fde	0.0017781218
44	0xbe94c313	-0.2905508
45	0x3e1e4dfe	0.15459439
46	0x3d9fb8de	0.077989325
47	0xbd32a31c	-0.043612584
48	0x3cca0a28	0.024663046
49	0xbc828f6e	-0.015937533
50	0x3d1034ea	0.035206713
51	0x3c452295	0.012032171
52	0xbddeb934	-0.108751684
53	0xbeaa84cf	-0.3330445
54	0x3f38503e	0.7199744
55	0xbe05f713	-0.13082533
56	0xbb2a38b8	-0.0025973748
57	0xbdee14b2	-0.11625041
58	0x3d686c69	0.056744013
59	0xbe64fa90	-0.22361207
60	0xbe266727	-0.16250287
61	0x3c41073c	0.01178151
62	0x3dd3e7bd	0.10346935
63	0xbe988671	-0.2979007
64	0xbd9fc852	-0.0780188
65	0xbdc8d874	-0.0980691
66	0x3e4eba5a	0.20188275
67	0xbcacb1dd	-0.021080906
68	0x3e448146	0.19189939
69	0xbce72a2c	-0.028218351
70	0x3db794b5	0.089639105
71	0x3d77422c	0.06036584
72	0xbeb853eb	-0.36001524
73	0xbe0c9d4d	-0.1373188
74	0x3c5ffba7	0.013670838
75	0x3ddf1a03	0.10893633
76	0xbe4cb1b1	-0.19989659
77	0x3df6c89a	0.120499805
78	0x3d8ca64f	0.06867658
79	0x3d2cfe05	0.04223444
80	0x3d137b47	0.03600624
81	0xbe3769ad	-0.17911406
82	0x3daca45d	0.08429787
83	0x3e40a970	0.18814635
84	0xbeba039b	-0.36330876
85	0x3c99bd96	0.01876716
86	0xbd0013d6	-0.031268917
87	0xbd854941	-0.06508113
88	0x3dc6d57f	0.0970869
89	0xbc5b6bff	-0.0133924475
90	0x3d207d41	0.03918195
91	0x3ca90cdc	0.020636015
92	0x3d9355e4	0.07194117
93	0xbe4a4603	-0.1975327
94	0xbd88a776	-0.06672566
95	0xbe67725f	-0.22602223
96	0x3de0a966	0.1096981
97	0xbe4f26e9	-0.20229687
98	0x3e84bfd5	0.25927606
99	0xbd2ca66f	-0.04215091
100	0xbe0e20da	-0.1387972
101	0x3d031008	0.03199771
102	0x3d8b51ac	0.06802687
103	0xbc040530	-0.008057877
104	0xbe1fb973	-0.15598087
105	0x3beb395f	0.00717847
106	0xbe654b76	-0.22392067
107	0x3eaf0d8f	0.34190032
108	0x3e8fb961	0.2807112
109	0xbe397ff0	-0.1811521
110	0xbcae7d49	-0.021299975
111	0x3dfda132	0.12384261
112	0x3eb222ef	0.34792277
113	0x3cdd95e7	0.027049018
114	0xbde44d2c	-0.11147532
115	0xbdcdbbc7	-0.10045581
116	0x3e172051	0.14758421
117	0xbcc5ce52	-0.024146233
118	0x3f132648	0.5748029
119	0xbe1232c3	-0.14277177
120	0x3e36dd5f	0.17857884
121	0xbcabbd8e	-0.02096441
122	0x3d775b99	0.06039009
123	0x3da8dd88	0.08245379
124	0x3e4f1e79	0.20226468
125	0x3e74e662	0.23916009
126	0xbda49de9	-0.080379315
127	0xbe0aa4f9	-0.13539495
128	0x3d9f1a58	0.077686965
129	0x3dcdcc3a	0.10048719
130	0x3d977e50	0.07397139
131	0xbeb8c462	-0.36087328
132	0x3e3497c9	0.17636026
133	0x3ed03ceb	0.40671477
134	0x3d30f2d6	0.043200336
135	0xbd40b51f	-0.04704773
136	0x3e50d4ea	0.2039372
137	0xbcbb6317	-0.022874398
138	0x3dc8cba3	0.098044656
139	0x3d2c9616	0.04213532
140	0xbd246ddc	-0.040143833
141	0x3e451e54	0.1924985
142	0x3e4c85ec	0.19972962
143	0x3dca9e36	0.098934576
144	0x3daa21b9	0.08307213
145	0xbd069712	-0.032858916
146	0xbe3bc917	-0.18338428
147	0x3db37774	0.08763018
148	0xbe5bf691	-0.21480776
149	0xbf06148f	-0.5237512
150	0xbe5f8ef9	-0.21831883
151	0xbea77f6b	-0.327144
152	0x3e091998	0.1338867
153	0x3e4a5467	0.1975876
154	0x3e319eaf	0.17345689
155	0x3d0483ef	0.032352384
156	0x3d13d406	0.036090873
157	0x3ec375d5	0.38175836
158	0xbccf368d	-0.025294567
159	0xbf0ae243	-0.542515
160	0x3dbccffb	0.092193566
161	0xbe069184	-0.13141447
162	0x3d16c057	0.036804523
163	0xbe19c7c9	-0.15017618
164	0x3dc0360e	0.0938531
165	0xbcec1328	-0.028817728
166	0x3e5e30a3	0.21698241
167	0xbd5da695	-0.054113943
168	0x3e41c8f6	0.18924317
169	0xbd75ac2f	-0.05997866
170	0xbe730915	-0.23733933
171	0xbd814d7c	-0.06313607
172	0xbe14241c	-0.144669
173	0xbdc22162	-0.094790235
174	0x3e0ed97f	0.13950156
175	0xbd24e8ef	-0.040261205
176	0xbd885493	-0.06656756
177	0xbe632af7	-0.22184359
178	0xbe943974	-0.28950083
179	0x3e05bf1c	0.13061184
180	0xbf01e049	-0.50732857
181	0x3e693e16	0.2277759
182	0xbec32100	-0.38111115
183	0xbe5a6b1d	-0.21329923
184	0x3db749ba	0.08949609
185	0xbe3000d3	-0.17187814
186	0xbd9d4c6b	-0.07680591
187	0x3d86faf2	0.06590833
188	0xbdf651d9	-0.1202733
189	0xbdf52790	-0.119704366
190	0x3de055d1	0.10953868
191	0x3dec58d8	0.11540383
192	0x3e13ea03	0.14444737
193	0xbd893a7c	-0.06700608
194	0x3c01f170	0.007931098
195	0x3e24a79b	0.16079561
196	0xbde549a6	-0.11195688
197	0x3e1d4e35	0.15361865
198	0x3e8ca7eb	0.2747186
199	0x3ddc14bd	0.10746143
200	0x3e6428f1	0.22281243
201	0x3e245507	0.1604806
202	0x3e325931	0.17416836
203	0xbe78c257	-0.24292885
204	0x3e073eb7	0.13207518
205	0xbe277c4b	-0.16356008
206	0xbe84b5db	-0.25919995
207	0xbd260086	-0.040527843
208	0x3ddf410e	0.1090108
209	0x3d3681be	0.044557326
210	0xbca1882f	-0.019718258
211	0x3e7ac5c4	0.24489504
212	0xbce4040d	-0.027833963
213	0x3df46b3f	0.11934518
214	0xbe1937b6	-0.14962658
215	0xbe5bd230	-0.21466899
216	0x3ea0f134	0.31434023
217	0x3da011fb	0.078159295
218	0xbf429a92	-0.76017106
219	0xbe09fb18	-0.13474691
220	0x3dc479b1	0.09593523
221	0xbe9a3202	-0.30116278
222	0xbdb3f660	-0.08787227
223	0x3c9870f6	0.018608551
224	0x3deb0a6f	0.114765994
225	0x3e85ec0a	0.26156646
226	0xbe0e945f	-0.13923787
227	0xbd683485	-0.05669071
228	0x3e9dc142	0.30811507
229	0xbc8f776a	-0.017512996
230	0x3da10565	0.07862357
231	0x3e3765b3	0.17909889
232	0xbe5947a6	-0.21218738
233	0xbe17008f	-0.14746307
234	0x3e4868f7	0.19571291
235	0xbe1ae346	-0.1512576
236	0xbec45a1d	-0.3835
237	0x3e4c5043	0.19952492
238	0x3e60eabe	0.21964547
239	0x3e1967e9	0.14981045
240	0xbe515a28	-0.20444548
241	0x3eff003b	0.49804863
242	0xbe638bdb	-0.2222132
243	0x3e0864c0	0.13319683
244	0xbd7ecab6	-0.06220504
245	0xbea05973	-0.31318244
246	0xbe42f6fc	-0.1903953
247	0x3c4c9216	0.0124860015
248	0xbd1c2f7d	-0.038131226
249	0xbe2977ff	-0.16549681
250	0x3dd320f7	0.10309022
251	0x3ee1835c	0.44045532
252	0xbe8e8840	-0.27838326
253	0x3ed4b137	0.41541454
254	0x3d1a83c6	0.037723325
255	0xbe891eb4	-0.26781237

model.2.bias f4 [64]
0	0x3d17599c	0.036950693
1	0x3e61953b	0.22029583
2	0x3e3051ae	0.17218658
3	0x3e30e7bd	0.17275901
4	0x3dc833a4	0.09775475
5	0x3e2c7a09	0.16843428
6	0x3e61ebd2	0.22062615
7	0x3dcf9db7	0.101375036
8	0x3d8f2d3c	0.0699105
9	0x3dbb18a0	0.09135556
10	0x3d406d91	0.04697949
11	0x3bcf819b	0.006332589
12	0xbe60bbab	-0.2194659
13	0xbcfe1a0f	-0.031018285
14	0x3e2f6d11	0.1713145
15	0xbda6af34	-0.08138886
16	0x3e56bcee	0.20970508
17	0x3e813a62	0.25239855
18	0x3e436a39	0.1908349
19	0xbe0876c6	-0.13326558
20	0x3e134237	0.14380728
21	0x3dd2e239	0.10297055
22	0x3e1e61b9	0.15466966
23	0x3df1b11d	0.1180136
24	0x3e2306ac	0.15920514
25	0x3ca55bd5	0.02018539
26	0xbde03450	-0.10947478
27	0x3cc55efb	0.024093142
28	0x3aa359e2	0.00124627
29	0x3d02f6fc	0.031973824
30	0x3e071675	0.1319216
31	0x3b30c63b	0.0026973623
32	0x3d580403	0.0527382
33	0x3e979167	0.2960312
34	0xbe448416	-0.19191012
35	0x3d6051a8	0.054765373
36	0x3dd008c8	0.10157925
37	0x3dcab304	0.09897426
38	0xbdd881ff	-0.1057167
39	0xbdef7b3a	-0.116934255
40	0xbe12aa56	-0.1432279
41	0x3c1e0ff9	0.009647363
42	0xbc725416	-0.014790555
43	0x3c803d23	0.015654152
44	0x3e525024	0.20538384
45	0xbd239260	-0.039934516
46	0xbdc1706d	-0.09445272
47	0x3d38fed8	0.045164913
48	0xbd25f2cb	-0.04051475
49	0x3d99e23b	0.07513853
50	0xbd7b2c94	-0.06132181
51	0x3d642200	0.055696487
52	0xbd193d36	-0.03741189
53	0xbe1c3c90	-0.15257478
54	0x3d702082	0.058624752
55	0x3d880332	0.066412345
56	0x3cb2869d	0.021792704
57	0x3e0d8232	0.13819197
58	0x3e3ee5c8	0.18642342
59	0xbdb00781	-0.08595181
60	0xbd2f54f4	-0.042805627
61	0x3e53b71d	0.20675321
62	0x3e3f4fdc	0.18682808
63	0xbdabd288	-0.08389765

model.4.weight f4 [10, 64]
0	0xbe95c69b	-0.29253086
1	0x3e79d215	0.24396546
2	0xbe413d76	-0.18871102
3	0x3df08d14	0.117456585
4	0xbd7a3e24	-0.06109442
5	0xbeaa551c	-0.33268058
6	0xbe766561	-0.2406211
7	0x3e6e4066	0.23266754
8	0xbcff2f7c	-0.031150572
9	0xbeccaa34	-0.39973605
10	0x3e567cae	0.20945999
11	0xbe81fe6f	-0.2538943
12	0xbf094a43	-0.5362894
13	0x3ece3324	0.40273392
14	0xbef42c85	-0.47690216
15	0x3d0cc647	0.03436878
16	0xbe05515c	-0.13019317
17	0xbe7552de	-0.23957393
18	0xbe9da4f3	-0.3078991
19	0xbdb7fc9e	-0.0898373
20	0xbf43cbb2	-0.7648269
21	0xbe4a3cfa	-0.19749823
22	0xbe2613d5	-0.16218503
23	0x3ea874f7	0.32901737
24	0x3e27812d	0.1635787
25	0x3e5f124c	0.21784323
26	0xbf159014	-0.5842297
27	0x3ef243cb	0.47317347
28	0xbee7c520	-0.45267582
29	0x3e340bb8	0.17582595
30	0x3ca74a79	0.020421254
31	0x3e73b983	0.23801236
32	0xbd557045	-0.05210902
33	0xbd53e458	-0.051731437
34	0x3e95a98c	0.29230917
35	0x3eb0fb1e	0.34566587
36	0xbe0b7771	-0.13619782
37	0xbd9b76ae	-0.07590996
38	0xbf0a5e5e	-0.5405024
39	0xbd7d4c0b	-0.0618401
40	0x3d1062bd	0.035250414
41	0x3ea1d3e4	0.31606972
42	0xbecafb88	-0.39645028
43	0x3e8a0199	0.26954344
44	0x3e98c076	0.29834336
45	0x3e7e8fe8	0.24859583
46	0xbe845fac	-0.25854242
47	0xbcba52c2	-0.02274454
48	0x3c70ed96	0.014705082
49	0xbea9057c	-0.33011997
50	0xbf36d8bc	-0.7142446
51	0xbe96e84b	-0.294741
52	0xbcaacacb	-0.020848652
53	0xbf22d27f	-0.6360244
54	0xbdeffdba	-0.117183164
55	0xbf1f5ad4	-0.6224797
56	0x3e1bd5c3	0.15218262
57	0xbe041d51	-0.12901808
58	0x3d5a9c3f	0.053371664
59	0x3d2b39ff	0.041803356
60	0x3eb0d692	0.34538704
61	0xbf1bd13a	-0.6086613
62	0x3e558117	0.20850025
63	0xbe0aaac9	-0.13541712
64	0xbf1d7262	-0.6150266
65	0x3e83387f	0.2562904
66	0x3d682ed8	0.0566853
67	0xbefd0b63	-0.4942275
68	0xbe9a32a0	-0.3011675
69	0xbd59806a	-0.05310098
70	0xbeb53ab8	-0.3539636
71	0x3cba8b47	0.02277149
72	0xbf0bd71c	-0.54625106
73	0xbeefb474	-0.46817362
74	0xbee6f3cd	-0.4510788
75	0x3ebb815e	0.36622137
76	0x3e980a7f	0.29695508
77	0x3ea2a7d3	0.31768665
78	0xbeb8301e	-0.3597421
79	0xbd80b48b	-0.06284436
80	0xbef84d5f	-0.4849653
81	0x3e40dcd1	0.18834235
82	0x3e1adb55	0.15122731
83	0x3d11e144	0.03561522
84	0x3ea6e270	0.32594633
85	0xbf4f3054	-0.8093312
86	0x3d99e9ff	0.07515334
87	0x3d37044f	0.044681843
88	0x3e553aa9	0.20823158
89	0x3dcde354	0.10053125
90	0xbd45e2b8	-0.04831192
91	0xbea1b802	-0.315857
92	0x3ec1da22	0.37861735
93	0x3e06a5ef	0.13149236
94	0xbe3e57fc	-0.18588251
95	0xbee75e74	-0.4518925
96	0x3d78cfd3	0.06074507
97	0xbee43b2d	-0.44576398
98	0x3e54cb3a	0.2078065
99	0xbd5b9777	-0.053611245
100	0x3dede354	0.11615625
101	0x3ec5c2d4	0.38625205
102	0xbda52e7b	-0.08065506
103	0xbe018920	-0.12649965
104	0xbd910f92	-0.07083048
105	0xbea8a024	-0.32934678
106	0x3ee9a129	0.45630768
107	0xbd80b2c5	-0.062840976
108	0xbd99f6cb	-0.07517775
109	0x3be1224c	0.0068705436
110	0xbe71dbbe	-0.23618981
111	0xbf4ae68e	-0.7925805
112	0x3c7234e9	0.014783123
113	0xbef1fcc0	-0.47263145
114	0x3dacf19b	0.0844452
115	0xbd9ac669	-0.07557375
116	0xbddef09e	-0.10885738
117	0x3e7e8600	0.24855804
118	0xbe8b7bdc	-0.27242935
119	0x3e73cff8	0.23809803
120	0xbecd6fe2	-0.40124422
121	0xbdf667bb	-0.12031504
122	0x3d3bb0bd	0.045822848
123	0xbe196144	-0.1497851
124	0xbeaed93e	-0.34150118
125	0x3e9edd59	0.3102825
126	0x3e271286	0.1631566
127	0xbdbc7046	-0.09201102
128	0xbee79753	-0.4523264
129	0xbf5d4642	-0.8643533
130	0xbf1f201e	-0.6215838
131	0xbddf4462	-0.10901715
132	0x3e868158	0.26270556
133	0x3e489277	0.19587122
134	0xbe16d034	-0.1472786
135	0x3e176753	0.14785509
136	0x3e1c4774	0.15261632
137	0xbdd4f66e	-0.10398565
138	0xbe8d4dd3	-0.27598438
139	0x3e97eec3	0.29674348
140	0xbeb9b084	-0.36267483
141	0xbe9899c6	-0.2980482
142	0xbe7727d8	-0.24136293
143	0xbe00e9eb	-0.12589233
144	0xbf3b1f53	-0.7309467
145	0x3e7404c2	0.2382994
146	0xbe00ddf3	-0.12584667
147	0xbb80ec2a	-0.003934403
148	0x3e0b67fa	0.13613883
149	0x3ebc2a27	0.3675091
150	0x3e71c398	0.2360977
151	0xbe87ab49	-0.26497868
152	0x3dcaa745	0.098951854
153	0xbc20851f	-0.009797364
154	0xbdd6462b	-0.10462602
155	0xbefe4260	-0.49660015
156	0x3ed700a3	0.41992673
157	0xbe24b640	-0.16085148
158	0xbeb6ae88	-0.35680032
159	0x3e57dcb1	0.21080281
160	0x3d243a94	0.040094927
161	0xbe26941d	-0.16267438
162	0xbdb93840	-0.09043932
163	0x3ebb708f	0.36609313
164	0x3dfdedb9	0.123988576
165	0xbee912eb	-0.45522246
166	0x3e9222f0	0.2854228
167	0xbca1f927	-0.019772125
168	0xbe1149c2	-0.14188293
169	0xbdf76d4b	-0.12081393
170	0xbed2fcb6	-0.41208428
171	0x3dd46070	0.103699565
172	0xbec29153	-0.380015
173	0xbd99ba86	-0.0750628
174	0x3e4c740f	0.19966148
175	0xbcfbbefd	-0.030730719
176	0xbd56c3e9	-0.05243293
177	0x3e08df02	0.1336632
178	0xbede4874	-0.43414652
179	0xbecbef4d	-0.3983101
180	0x3c9eef23	0.019401139
181	0xbf17b0c2	-0.59254086
182	0x3e81ec13	0.25375423
183	0xbd64fd3a	-0.05590556
184	0x3e613b1c	0.21995205
185	0xbd1eaffc	-0.03874205
186	0x3e9df687	0.30852148
187	0x3d4f636f	0.050631937
188	0x3ea43b68	0.32076573
189	0x3d08b815	0.03337868
190	0xbf2ad7b4	-0.66735387
191	0xbc5676f0	-0.01308988
192	0x3e3a45ee	0.18190739
193	0xbebbc288	-0.36671853
194	0xbf0fbcb6	-0.56147325
195	0xbe9c6989	-0.30549267
196	0xbef489eb	-0.47761473
197	0x3e70bf60	0.23510504
198	0xbec0ce2d	-0.376573
199	0xbd261fd1	-0.040557686
200	0x3e8d061a	0.27543718
201	0x3e80d791	0.25164464
202	0x3e94cdd5	0.29063287
203	0xbe0959bd	-0.13413139
204	0x3e7261b1	0.23670079
205	0x3ede2334	0.43386233
206	0x3d18ef48	0.03733757
207	0xbe33ec7d	-0.17570682
208	0xbe9795a1	-0.29606345
209	0x3e2cc59b	0.16872256
210	0xbe9d1a48	-0.30684114
211	0xbd1c6560	-0.038182616
212	0xbe57a2d3	-0.21058206
213	0xbe28589f	-0.16440056
214	0x3dddd391	0.10831369
215	0xbe460f9c	-0.19341892
216	0xbf258b54	-0.6466572
217	0xbd24cd14	-0.04023464
218	0xbee25356	-0.44204205
219	0xbd7b94d8	-0.061421245
220	0xbee2e539	-0.44315508
221	0xbe02c11f	-0.12768982
222	0x3e202832	0.15640333
223	0x3e5a1654	0.2129758
224	0xbd5b4942	-0.05353666
225	0xbf1a0064	-0.60156846
226	0x3e6134ff	0.21992873
227	0xbe043aa7	-0.12912999
228	0xbe83824d	-0.2568535
229	0xbf26d2b3	-0.6516525
230	0x3e77ae62	0.24187616
231	0x3d11f508	0.03563407
232	0x3d6e15bd	0.0581262
233	0x3e136791	0.14394976
234	0x3ef00bae	0.4688391
235	0xbe8482f8	-0.2588117
236	0xbe592c98	-0.21208417
237	0xbee0c74c	-0.4390205
238	0x3da2ee27	0.0795558
239	0x3eba4d60	0.36387157
240	0xbd812ef0	-0.06307781
241	0xbf41cd65	-0.7570403
242	0x3e0eeb22	0.13956884
243	0x3ec10961	0.37702468
244	0x3d2b5d14	0.041836813
245	0x3e6a7f0d	0.22900029
246	0x3e94d8dd	0.29071704
247	0x3dfcab92	0.12337412
248	0xbe798892	-0.24368504
249	0x3e55e3dc	0.20887703
250	0xbd429dc3	-0.047513735
251	0xbe0c3d20	-0.13695192
252	0x3e0a269f	0.13491295
253	0xbf27064d	-0.6524399
254	0xbd141650	-0.03615409
255	0x3d32a71d	0.043616403

model.4.bias f4 [10]
0	0xbd994c7a	-0.0748529
1	0x3c87d246	0.016579758
2	0xbd46b0b4	-0.04850836
3	0xbdaae4cf	-0.08344423
4	0x3bd0aacc	0.006368017
5	0x3cd874f4	0.026422955
6	0xbe0d873c	-0.13821119
7	0xbdc27885	-0.094956435
8	0x3e418e18	0.1890186
9	0x3bc7e607	0.0061004194
